wildfire/models/weights/clstm.pt (torch, 231366 bytes, 10 tensors)

h2x.weight f8 [1, 16, 1, 1]
000000 a6 58 d8 ff ce 43 57 bf 4c c6 47 56 fb 2f 81 bf
       -0.0014199754217592369 -0.008392299242561262
000010 e0 03 1d 5e 6a cd bd 3f 6d c9 32 a4 75 8f 99 3f
       0.11641564176262831 0.02496131720244803
000020 24 12 ae b2 3d a4 b2 bf 76 61 1b 3e 59 fb aa bf
       -0.0728186188917524 -0.05269888766423751
000030 d5 27 d3 63 73 de 54 bf c0 01 85 b5 29 48 98 3f
       -0.001273739514817231 0.023712779716562826
000040 40 2b d6 fd fc fa c0 3f 64 60 88 30 26 5f 99 3f
       0.13265955347409353 0.024777027809335897
000050 54 cc 10 89 19 ec a0 bf dd 70 25 a3 9e b1 cc bf
       -0.0330512981239727 -0.2241705223667684
000060 df 55 b1 fa 47 52 b5 3f ce d0 54 47 bc 68 b9 bf
       0.0832867610018506 -0.09925438634383285
000070 55 b6 c0 00 5c f3 b9 bf ee db b9 c9 91 d3 a9 3f
       -0.10136961954477759 0.05044227206683859

h2x.bias f8 [1]
000000 02 92 da 39 93 74 b5 3f
       0.08381004488416724

bn.weight f8 [16]
000000 de a9 26 58 eb 64 ed 3f 02 c2 15 9d 40 6c ed 3f
       0.9185692521762652 0.9194644039217226
000010 68 06 d8 64 8b 58 f1 3f ac 57 3b 0c 11 47 f0 3f
       1.0841173114025882 1.017350242405409
000020 37 dc cf a0 4c d3 f0 3f 7d 9c 26 e3 d6 a3 f0 3f
       1.0515867501942588 1.0399998543814768
000030 4a 24 45 cf b7 34 ed 3f 55 e6 32 6c e3 b5 ee 3f
       0.9126853035205695 0.9597031701334325
000040 e5 e5 1f a7 8b 5c ec 3f 17 1d f7 d5 0f d6 f0 3f
       0.8862970604088188 1.0522611959475563
000050 91 d6 42 01 0c 81 f0 3f 8e 66 2c 6f 61 03 f1 3f
       1.0315055894147103 1.0633253424370284
000060 21 27 1b ff e3 63 f0 3f 9e 4f b3 68 93 32 ec 3f
       1.0243873562889763 0.8811738057070106
000070 d7 20 c4 0c 3d a9 ec 3f b4 d3 fa 11 ce 52 f2 3f
       0.8956589936579132 1.1452160551391275

bn.bias f8 [16]
000000 ee 1e 98 0f b4 a1 a0 bf 4c a2 16 97 06 a2 5e bf
       -0.0324836987529674 -0.0018696846349063488
000010 79 bf cf 22 ca 01 a8 3f e2 ab a5 90 6d 87 76 bf
       0.04688865351624733 -0.005500247944250499
000020 c4 88 52 4a 4b 44 9d bf 39 e7 99 84 13 b8 90 bf
       -0.02858083382728506 -0.016327195137342463
000030 b4 5b 59 c4 a2 36 90 bf 2d cf c9 07 b8 7f 58 bf
       -0.015833419069476398 -0.0014952943012333617
000040 37 05 36 52 03 a6 b4 3f eb df 3e d7 75 17 80 bf
       0.08065815693955335 -0.0078572470009561
000050 00 c9 be 4f 89 62 88 bf 88 09 c2 f6 38 89 b4 bf
       -0.01190669321644977 -0.0802188494144841
000060 12 4b 39 01 f7 98 a0 3f b8 dd 71 2c f1 48 b4 bf
       0.03241702928484903 -0.0792380078799998
000070 b5 29 f1 e7 c8 96 b3 bf a4 0d 5d 4c 2e 01 79 3f
       -0.07651954329154516 0.00610464177390516

bn.running_mean f8 [16]
000000 cc 5d 40 3f 8a 9e 71 3f a7 9c 48 01 8f c3 6d 3f
       0.0043015861774828405 0.003633288675945662
000010 19 69 d5 e1 66 44 a3 3f 4d 33 ee 31 e1 2c 97 3f
       0.03763123995550383 0.022632139847292
000020 5a 5f 2a 70 94 43 8d bf b0 c0 16 30 ff fa 7b bf
       -0.014289054558772985 -0.006831166102912942
000030 0c 79 fc 2e c2 a4 4a bf 6f 85 1a e4 5b 28 8e bf
       -0.0008130977784935058 -0.014725416086835278
000040 60 4f 9c 3f eb b9 a2 3f 7a 98 72 7d 41 94 7b bf
       0.03657469893928922 -0.006733184643200935
000050 22 ad 7a e8 db a1 a0 3f e3 96 18 3d c8 f3 98 bf
       0.03248488629227554 -0.024367455224043943
000060 32 29 c6 21 ac 00 a1 3f e9 46 17 25 7a 68 92 3f
       0.03320825493126946 0.01797667361626668
000070 74 64 69 f2 02 73 8e 3f f1 96 b9 e6 7a 14 85 bf
       0.01486780454904333 -0.010292968908469176

bn.running_var f8 [16]
000000 6d ee d3 3d 76 9d 59 3f 65 3b 51 4b d4 fa e6 3e
       0.0015634207441611828 1.0957623411437468e-05
000010 0b 1b 7b 60 90 18 81 3f 63 5c 87 7d 13 f3 80 3f
       0.008347633308756671 0.008276130932172337
000020 82 03 c9 21 63 ab 87 3f de 05 fe a6 56 0a 91 3f
       0.01155736395696905 0.016641000692748757
000030 56 d2 16 8d 36 e7 54 3f be d8 a6 7e 41 bc 70 3f
       0.0012758286214708168 0.004085784758379228
000040 f9 6a 92 ae b7 7d 1b 3f 58 bd 29 e9 52 95 02 3f
       0.00010487016301611783 3.544482492123341e-05
000050 2c db c5 75 78 75 2d 3f e0 29 79 76 b2 ea 97 3f
       0.00022475333652113275 0.02335623596290215
000060 97 a3 e9 aa 23 2f 87 3f 5c 3b df 1b 0a f7 6f 3f
       0.01132037988027594 0.003901977294823151
000070 4e 61 db 02 02 39 5c 3f df ef b3 38 29 48 10 3f
       0.0017225761070474746 6.211043926279647e-05

cell_list.0.conv.weight f8 [64, 17, 3, 3]
000000 02 5f de 26 a0 4e c9 3f 9a e0 39 82 fb 00 c9 3f
       0.19771196267969776 0.19534248217292288
000010 28 be bb ae c7 b3 c2 3f 60 d7 7e 4a 93 9e c0 3f
       0.14611145049956176 0.12983933579897222
000020 ae f8 e6 2c 34 07 bd 3f 44 66 de d9 7d 86 cc 3f
       0.11339117141958141 0.22285435808298548
000030 62 e5 08 fb 27 1e be 3f ff e6 6e f9 17 92 bb 3f
       0.11764764670160369 0.10769796218565018
000040 7b e9 e1 51 1b de c6 3f 56 f6 a3 4a 44 c1 9f 3f
       0.17865315912406374 0.031010691695874414
000050 cc 8b ce b2 0d 30 b8 3f 2b f3 d2 55 58 21 86 3f
       0.09448323836708922 0.010805788153783155
000060 5b 7a 69 aa 19 34 a6 bf 5e 06 94 27 ac 01 a8 bf
       -0.04336624341225522 -0.0468877600014934
000070 79 8d 41 1a 7f 40 a5 3f 10 93 5c 2b 4a b0 ce bf
       0.04150769420155149 -0.23975493542925408
000080 aa 2a 52 8a 6d 21 b7 bf 42 f3 27 cb 22 c0 a5 bf
       -0.09035381915070198 -0.04248150567943877
000090 88 e2 42 62 a3 6c be bf 72 7a 16 62 33 67 a0 3f
       -0.11884518765408292 0.03203735897408401
0000a0 de b6 2d b8 bf cb b2 bf 53 b3 35 e9 c8 1c bd bf
       -0.07342146154925497 -0.11372047132108536
0000b0 5e 81 2c 3f b4 07 8b bf df 77 11 52 4b 50 a4 bf
       -0.013198288133538124 -0.039675096290679106
0000c0 a9 5d f4 85 ab 21 ab bf 5c 33 ab 01 1e b5 b8 3f
       -0.052991256811022076 0.09651362934819246
0000d0 84 cb 5a e9 b6 99 b2 3f d9 c8 cb 62 cd 2d d2 3f
       0.07265799710402915 0.28404554985094205
0000e0 ff 39 24 2b c7 b6 cc 3f 63 68 78 09 6c 94 cd 3f
       0.22432794195670167 0.2310919805757435
0000f0 5b 44 65 d2 0f 05 dd 3f 7b 09 de 7d 37 0a d8 3f
       0.45343394800608444 0.37562358180743843
000100 00 e4 fb 83 7b b9 d5 3f 12 fb af 9a 33 9c dc 3f
       0.3394459523111095 0.4470337877864249
000110 b2 5e 0a e6 eb 15 dc 3f 78 11 ba 78 9c 03 d8 3f
       0.4388379808892565 0.3752204112027111
000120 e1 ea 15 98 d6 c7 bd bf bf c4 a9 f6 9f 33 8c bf
       -0.11633053982761112 -0.01377034160143109
000130 61 70 0d 5b 16 f3 c3 bf d3 d1 a9 50 30 55 cc bf
       -0.15585593648836762 -0.22134975374832652
000140 d8 ad 95 7c c7 1c b2 bf ba 1c a4 be 6e 5d 9e bf
       -0.07075163642519244 -0.02965329207020482
000150 e1 ca 43 ef 1a c2 c2 bf c6 09 c1 17 a5 e7 c0 bf
       -0.14654862101413982 -0.1320692411409949
000160 76 54 4c 98 31 e1 a1 bf 27 42 cc eb 89 14 c6 3f
       -0.034921216813167996 0.17250179303711485
000170 fc 07 af 0f a2 84 b3 3f e0 a0 65 99 c4 f9 c2 3f
       0.07624256976035321 0.14824731340491493
000180 ec e3 3d ff f2 83 a7 3f fb bd 4a fb df 6c c4 3f
       0.0459285675596631 0.15957259912600805
000190 70 a6 74 58 35 2e c4 3f 35 47 7f b9 51 f5 b1 3f
       0.15766016787647485 0.07014952448596719
0001a0 74 7b 8f b4 16 0a a3 3f 32 09 db ba 3d 90 c4 3f
       0.037186345616411126 0.16065189002808605
0001b0 10 2d be e7 2b db a1 bf 2e c1 1d c8 28 b6 c4 bf
       -0.03487527088062781 -0.1618090607767128
0001c0 60 d1 00 ed f3 ce ca bf 7c 2b 53 c0 37 ee a6 bf
       -0.20944069931432363 -0.04478620741573189
0001d0 21 09 5e 7c 1c 41 bb bf 5f 92 51 b3 78 6d b7 bf
       -0.10646226917564096 -0.09151415231605985
0001e0 1a 12 42 3f 28 ad b3 bf 30 ea a3 6c 1e 7d c5 bf
       -0.07686091942202503 -0.16788082413388983
0001f0 c0 72 58 d4 37 1f be bf 9a 91 9c d2 b6 85 b5 3f
       -0.11766385015693981 0.08407156602749524
000200 1c a5 6b 35 cf cc 80 3f 01 31 69 49 75 60 ba 3f
       0.008203142946018142 0.10303433458574675
000210 d9 97 d9 10 11 48 bf 3f c6 62 67 d7 90 5b c4 3f
       0.1221934000146513 0.15904436605230482
000220 80 ec 4b 55 c0 f9 a8 3f e8 60 02 2a cc 8f b7 3f
       0.0487804512140082 0.09203792596452198
000230 89 ce 0d a9 4b 0b d1 3f 49 2b 71 d8 c4 b4 be 3f
       0.2663144255559265 0.11994581493597169
000240 8a 1d c9 d8 67 8e d4 bf ea 47 83 fa e3 20 db bf
       -0.3211917511984771 -0.4238824793256969
000250 8a c7 92 d3 89 52 d8 bf cf ea 0e 04 b7 ae d2 bf
       -0.3800377432008807 -0.2919137515670344
000260 0d 30 36 d6 7e 86 d8 bf cb eb 74 ba 9d a8 d6 bf
       -0.38320895117863146 -0.3540415116182742
000270 01 a4 5c 76 64 a6 d1 bf d9 1a dc f3 1d 57 d4 bf
       -0.27578078802849865 -0.31781719984466644
000280 66 3c 19 b5 5e 3d d8 bf 24 cd 20 51 c9 79 86 bf
       -0.37874572453887934 -0.01097447661240964
000290 d6 81 37 bb 99 d0 a7 3f ed 23 62 ba f7 3e a2 bf
       0.04651337061273224 -0.03563665533244618
0002a0 ea af d0 c0 50 1d 97 3f 62 3d 51 69 1e b6 a0 3f
       0.022572767036919496 0.032639456134911496
0002b0 6d 2c c6 e6 97 03 93 bf a9 8a 61 62 32 43 bb 3f
       -0.018568395099958602 0.10649409200554295
0002c0 f9 05 42 fd 2f de b1 3f 9f 95 51 c7 3d fb ae 3f
       0.06979656155638016 0.06051056917275876
0002d0 99 2e 72 3a 1d 5e b3 bf 61 bc 02 94 5d 92 96 3f
       -0.07565481831459876 0.022042715224128154
0002e0 ea 50 bc 85 97 b0 98 3f a8 0d b3 64 03 fd ae 3f
       0.02411114457852729 0.06052408794632963
0002f0 ac e7 a3 7f f9 66 ad 3f cf 31 f5 c2 86 0b b2 bf
       0.05742625887974326 -0.07048837909423543
000300 f8 e1 37 2d 16 ea a8 bf 55 97 66 da 72 f0 7a 3f
       -0.04866093923550702 0.006576965947180676
000310 f8 c5 9b 7c 95 12 a1 3f 37 44 d4 8a 3b 58 e5 3f
       0.033344909153935676 0.6670205794818064
000320 b6 ca 3f 30 7f 8e e6 3f fc f9 16 2c 86 f6 e3 3f
       0.7048946325652057 0.6238432751777618
000330 4f 91 d2 03 a4 ac e3 3f 94 f0 fb e7 1f 28 e4 3f
       0.6148243021639618 0.6298980265560368
000340 35 47 a2 75 37 d8 df 3f be 0f 0c 83 c2 97 e0 3f
       0.4975718163269563 0.5185253676904649
000350 28 ca 8e 43 af 67 e0 3f 83 29 88 92 db 60 e0 3f
       0.5126568145263422 0.5118234502745483
000360 65 c2 b3 90 e5 0c b7 3f eb f4 0c 75 3d 38 c8 3f
       0.09004053862350643 0.18921631064760133
000370 e6 1c 98 d9 5b 9a cb 3f 13 89 d3 63 1a b1 bb 3f
       0.2156481564017902 0.10817112862745075
000380 42 10 fa 4f a1 91 c3 3f 4b 0b 6e 37 cd 68 be 3f
       0.15288177876584724 0.1187866459204489
000390 46 8d b7 88 d7 df c0 3f b0 89 eb dc 20 ee aa 3f
       0.13183111358294236 0.05259802529123492
0003a0 0e fd 92 c3 72 1f a8 3f 65 73 d5 e8 3a 16 b3 bf
       0.04711493146305133 -0.07455795463961364
0003b0 e9 b5 aa 81 bc 92 c2 bf 81 d4 23 f1 17 f7 ca bf
       -0.14510303813351236 -0.21066569590007947
0003c0 17 c1 64 8c d4 25 c3 bf 36 8e af 96 03 c7 a7 bf
       -0.14959198813586091 -0.04644023146081759
0003d0 98 3b 13 27 a3 f6 b9 bf e0 36 9c 59 f4 30 a7 bf
       -0.10141963676436061 -0.045295368136164305
0003e0 93 a5 6d d7 f1 56 b3 bf 64 22 10 a2 77 62 a9 bf
       -0.07554542073707742 -0.04957937100704582
0003f0 2c 11 3e 08 af 0c c7 3f f9 d7 1d 1d b7 f2 c8 3f
       0.18007457640136104 0.1949070827647004
000400 a1 91 7a de a7 11 cd 3f 58 00 62 1e 39 50 c7 3f
       0.22710131037923723 0.18213571532760642
000410 19 66 69 4d a9 28 ca 3f fc 6d 1f ef 10 24 c2 3f
       0.20436588554257254 0.14172565151135064
000420 b8 60 2d 3d 87 b1 c9 3f 2c e5 2d d1 c7 25 cd 3f
       0.20073023307009463 0.22771547044593754
000430 ac 2c 18 76 fe 5d c2 3f 41 66 66 ac 91 e3 cd 3f
       0.14349346891717596 0.23350735586136476
000440 c5 82 ce 2c 42 17 b5 3f 23 ff 18 d9 20 74 c8 3f
       0.08238614648736149 0.19104395485373357
000450 4a 2e 80 a9 1b a1 c9 3f da 3f de bd 12 09 cc 3f
       0.20022912765885997 0.21902689238458956
000460 87 b2 f8 fa 4c 8f ca 3f e9 54 5b 32 9f bf c3 3f
       0.20749819044558057 0.1542853351481093
000470 14 ba 31 8b 54 a3 ba 3f 38 06 20 bc ce b8 bf 3f
       0.10405472181603442 0.12391368954561066
000480 ca de f7 7c 39 9e c0 bf 58 2b 58 20 6e 7a c1 bf
       -0.12982863046612741 -0.13654877261464082
000490 be 32 57 58 41 7e c6 bf 9f ab 3b fe 30 f7 7b 3f
       -0.1757280045843767 0.006827536944665007
0004a0 e9 ea 21 b8 29 c0 8a 3f f6 fa 11 1b 47 c1 84 bf
       0.013061834270265265 -0.010134273065202742
0004b0 ea 87 5f 8f 5b d8 b6 bf 1a cd 6b 89 55 98 7f bf
       -0.08923885584184146 -0.007713636520509293
0004c0 37 d0 d3 bb 2c f6 b5 bf f4 e5 1c e8 2c 3e b5 3f
       -0.08578757844571859 0.08297997156923725
0004d0 b1 6b 73 7a 2a bb d4 bf af d4 18 09 99 1e b4 bf
       -0.3239237018403243 -0.0785918853005849
0004e0 18 18 7c 11 c0 22 9c 3f 17 92 0f 18 9a 09 b5 3f
       0.02747631174772644 0.0821777638189548
0004f0 90 a7 8d 1f db fd 94 bf 86 00 a7 07 bd 32 c3 3f
       -0.02049963359915058 0.14998591302537906
000500 29 8f 47 79 96 b8 bb 3f 99 79 dc c4 5a d6 c6 3f
       0.10828533612180692 0.17841658222546355
000510 9a 43 84 ca 30 fb c4 bf 39 e1 0e 13 db 30 d3 bf
       -0.1639157284594404 -0.29985691891808447
000520 d5 47 c6 94 77 6d a2 bf 79 4f 42 c7 f4 6d c8 bf
       -0.03599141779990559 -0.19085559586948955
000530 04 7e 25 5d 5d b0 c1 bf 66 6c 22 4d 78 7a c4 bf
       -0.13819472358862595 -0.15998748556453107
000540 c0 9a 66 84 c7 f4 d3 bf 35 93 94 8c af d5 ce bf
       -0.31181514673009403 -0.240896171229133
000550 c8 ca ea bb 3c ec d3 bf 10 06 ea aa 0d 30 cf bf
       -0.3112937770012363 -0.2436539730588696
000560 a0 9a 01 7d 4a 06 d1 bf db 4c 70 ab b5 cd a7 bf
       -0.2660089703335107 -0.04649131505734668
000570 d9 23 38 7f a3 64 c5 bf 5f dd 67 89 72 69 ac bf
       -0.16713374816779838 -0.05549199988666475
000580 0e 14 ed f4 db 43 61 3f 54 b8 54 53 c8 90 b5 bf
       0.0021075531034591205 -0.08424045595595092
000590 b9 4a 9a e3 13 0f b0 bf da ea 93 33 dd 33 cd 3f
       -0.062730067317072 0.22814526575515154
0005a0 93 e7 02 ed dd c8 d1 3f 97 5d 63 0b 04 61 bf 3f
       0.27788494248999845 0.12257409360915116
0005b0 9a 49 49 c9 6a 89 ad 3f f1 94 32 af 1b 81 cf 3f
       0.05768903452976133 0.2461275678116759
0005c0 e5 4f 8e 04 34 3f c3 3f d7 8b 3e 97 f8 99 c1 3f
       0.15036630842644097 0.13751132378555894
0005d0 d9 35 f1 d0 b8 98 e2 3f 6a 39 a8 0f 86 a4 dd 3f
       0.5811428147223366 0.46316672829643457
0005e0 11 73 e3 01 cd 5d d4 3f 32 82 db 05 22 51 d3 bf
       0.3182251470987448 -0.30182695934311987
0005f0 98 06 49 cf 3c a2 c6 bf aa f0 54 52 57 f5 d3 bf
       -0.1768260967383426 -0.3118494323750932
000600 47 6f be 1d d5 b4 d3 bf 60 72 7f 34 94 55 c6 bf
       -0.3079121389835006 -0.1744866615616898
000610 92 dc 15 12 70 db b6 bf 5b 74 0d 22 2b f3 d2 bf
       -0.08928585473573694 -0.29609182668156614
000620 01 8f bd 35 33 38 d0 bf fc 45 2c e5 8b a9 c3 bf
       -0.25343017814724084 -0.15361164751134015
000630 1f 80 fb c3 a0 a0 b5 3f d7 ce 25 be e3 39 a2 3f
       0.08448223862387792 0.03559791275156748
000640 78 09 25 21 27 4c c8 3f 08 23 55 0d bf 7c bf 3f
       0.18982400053398485 0.12299722743513197
000650 c6 9f 28 bc 74 1f a4 3f 64 8d 25 93 1b fd b8 3f
       0.039302490204419935 0.09761211721847968
000660 03 c7 cd c7 16 ca b9 3f 44 50 f7 50 ef ea 77 3f
       0.10073988321326159 0.00583928568763176
000670 60 04 4b 63 40 96 b9 3f 27 d7 e3 a7 60 1d b5 3f
       0.09994890617510199 0.0824795160186481
000680 9f ca 89 3d cb 82 99 3f b4 61 92 fe af cd a7 3f
       0.024913001662251074 0.04649114592138251
000690 d6 fe 90 1a 55 71 ba 3f 96 33 2d b9 88 1f b9 3f
       0.10329181574433774 0.09813742180740656
0006a0 f8 b4 63 ce bb 05 af 3f f0 dd 87 45 55 a3 87 3f
       0.0605906190338405 0.01154200190010976
0006b0 28 00 b4 56 d8 6f b4 3f d4 fb e9 3f 88 ca 94 bf
       0.07983162037635394 -0.020303849125862986
0006c0 07 16 1d 17 77 e0 a4 3f 02 ac f2 bd 4e ba b5 bf
       0.04077503354214334 -0.08487407815361794
0006d0 2a fd d5 bf c7 51 c0 3f e3 58 03 04 24 6f aa 3f
       0.12749573580729506 0.05162918614375813
0006e0 a4 1e 89 85 f5 80 a2 3f e5 e5 aa 12 14 91 a5 3f
       0.036140129614577604 0.04212248542667022
0006f0 0c 81 39 56 da e0 c0 3f a1 7e a0 fa 9a d5 95 bf
       0.1318619652765921 -0.021322652384809463
000700 a8 87 81 54 b0 78 c3 3f ea 89 5c 0e 3d ea db 3f
       0.1521206295611226 0.43617178347099517
000710 73 3d d1 6d b1 76 d4 3f c1 36 2c 0a 37 0c 88 bf
       0.3197444508013724 -0.011742048261591422
000720 c4 bb 36 bc 29 e0 ca 3f ff 11 48 94 c8 f7 c7 3f
       0.20996591272475318 0.18724925270375078
000730 99 f5 1d 2a 15 6d cc bf 25 57 3e 5b f4 5d c3 bf
       -0.2220789390229754 -0.15130476432084908
000740 7c 60 e8 ff e3 4c c4 bf 6e 41 c7 bb dd bc e0 bf
       -0.1585965156125474 -0.523054949526381
000750 5d 48 ff df 16 cc d7 3f 8c 7a da bd 4c d0 d3 3f
       0.3718316256973873 0.3095886091267992
000760 f5 4e a7 f6 38 69 dc 3f d8 2d f4 28 91 a2 d9 3f
       0.44392227256069755 0.400547304147691
000770 72 64 96 72 87 25 dd 3f 1a f8 58 6d df 5b d6 3f
       0.45541559400732645 0.34935746839971815
000780 89 b1 cd 8b c4 09 df 3f ef 27 04 d0 e1 76 d8 3f
       0.48497117664990036 0.3822559863480128
000790 d2 a4 ac 39 d9 5a d9 3f 8b ed df 17 ce 4f e1 bf
       0.3961699546076264 -0.5409918276122182
0007a0 96 55 b2 f8 d2 bf e0 bf 30 3d 24 13 32 11 e1 bf
       -0.5234160287242726 -0.5333490728243415
0007b0 9b 9c fd 56 30 56 e0 bf a9 3d e1 8a bd 19 df bf
       -0.5105210970913449 -0.48594606935963697
0007c0 d6 21 f5 2a 19 68 d5 bf 00 fa 03 b6 85 00 d4 bf
       -0.3344786567218113 -0.31253187918619574
0007d0 5c 4c 95 dc f8 ff d2 bf 4d c9 06 1e 2d bb cb bf
       -0.2968732980854776 -0.21664966550958767
0007e0 5f b3 9e 0b 78 6c dc 3f 0e dd 31 45 2c a8 ce 3f
       0.4441204179263902 0.23950723055507023
0007f0 c1 ba 58 5b 68 9f d5 3f 2d 1e dc 3a 0a e3 d9 3f
       0.3378544704491269 0.4044824194720345

cell_list.0.conv.bias f8 [64]
000000 8c 79 44 34 72 ea b7 3f 5a 65 1f c1 d9 de c3 3f
       0.09342111373960033 0.1552383606893198
000010 e5 ef 00 67 12 22 c1 3f ab c4 77 e7 54 3e b5 3f
       0.13385229138827906 0.08298235560484339
000020 b3 df a9 92 a1 8d ab bf 0c d3 f2 c2 d9 dc c0 3f
       -0.05381493487669733 0.13173982638331727
000030 7e d7 e0 f1 b4 50 c1 3f 3a 74 77 70 f5 0c cd 3f
       0.13527547655547417 0.2269579695847897
000040 ec c6 7f 1d d0 a1 a9 bf 63 e9 6c c7 12 68 ac 3f
       -0.05006265983673849 0.055481516689229314
000050 24 48 61 73 57 57 d5 3f c1 c9 ce d3 2a cc b3 3f
       0.33345590846613704 0.07733409567916906
000060 a3 cd cb a9 19 6e 91 3f ce 7e 74 c6 b5 70 9b 3f
       0.01702156161168279 0.02679714225553092
000070 ad 4a 00 b6 dc 62 bb 3f f5 93 1b 16 89 3e c7 3f
       0.10697726672541803 0.1815959318111308
000080 8d 99 ed 70 61 34 b8 bf 6e f1 60 58 fe ca c5 bf
       -0.09454926497492107 -0.17025737109532763
000090 74 30 9b 02 cd 14 c8 bf a4 1d c9 85 00 13 b1 bf
       -0.18813479068046812 -0.06669619814157685
0000a0 f9 1a d8 8a 6e 36 b9 bf b2 df 01 d6 94 68 a6 bf
       -0.0984868134474758 -0.04376664268869436
0000b0 91 ae 9b 19 13 94 c5 bf 0b c0 cc 36 ae 68 d1 bf
       -0.16858137846371737 -0.2720141921190595
0000c0 90 c0 48 75 6e fc 9a bf 42 3e 3c 11 52 6e b2 bf
       -0.026353574665507085 -0.07199585839065839
0000d0 d4 a6 22 0f 2f cc d7 bf 6c 1a d2 be 7e 04 92 bf
       -0.37183739164411844 -0.017595272442600438
0000e0 36 a1 1d f2 8f fb a3 bf b5 7b 48 62 01 04 b8 bf
       -0.039028642945427114 -0.09381111764422097
0000f0 d5 2d c0 7e 8f b1 b7 bf 87 1e 8b 6c a6 71 a6 bf
       -0.09255310863971229 -0.043835831403666474
000100 9b 81 f5 dd 4d 7b c8 3f 53 f4 06 b8 1d c6 c9 3f
       0.1912629445823882 0.2013585232324738
000110 08 69 f8 2a 33 aa c7 3f 65 14 0d e7 e4 6c b8 3f
       0.18488158796464682 0.09541159287353336
000120 77 27 ce 9d 9c fd b0 bf 96 c3 13 dc 35 14 b4 3f
       -0.06636980869930463 0.07843338606813996
000130 27 ec 92 e6 a0 9e c7 3f 69 7f 49 47 e9 00 d1 3f
       0.18452845819942462 0.2656806179202165
000140 b7 ca 27 2c 8c 56 81 bf 4d d3 9f b3 46 2a ad 3f
       -0.008465857598797795 0.05696316664390242
000150 24 04 0d 4c b7 12 d5 3f 2f 27 8d db eb 5a aa 3f
       0.3292673342403438 0.05147492461271807
000160 6f 01 e6 18 9b 03 a5 3f 95 6a 16 75 59 5c b8 3f
       0.041043135442126004 0.09515914066870786
000170 e6 ca 00 49 e1 5d c0 3f 2e 3c ac 49 1a d0 bc 3f
       0.12786499085048958 0.11255039499904804
000180 e8 c1 69 26 7b 80 ab bf 78 47 92 16 e2 ae a4 bf
       -0.053714607657528834 -0.04039675260095427
000190 08 2d df be d1 49 70 3f d6 a1 71 f4 12 e7 a7 bf
       0.0039766495883200095 -0.04668483003553418
0001a0 78 d4 f3 86 29 66 9c 3f e3 13 a6 e2 eb a1 5c bf
       0.027733467923969773 -0.0017475894515837024
0001b0 19 45 5f 3a 4a 6d a1 3f ce 2a 52 c7 e4 32 97 3f
       0.034036941171175346 0.02265508143004063
0001c0 5f ff ee c6 bc 33 b0 3f 10 ec 15 dd 62 77 b2 bf
       0.06328945023323972 -0.07213418862913579
0001d0 1d 07 c4 03 47 81 75 bf 11 b3 cf 34 1d d4 9d 3f
       -0.005250241662226232 0.029129463528010883
0001e0 35 72 71 2c 93 41 7e bf 03 c9 ca 37 73 a8 a3 3f
       -0.007386755844973216 0.03839454704338332
0001f0 13 19 64 07 82 85 a2 3f d1 eb 8f ac 4a 15 b2 3f
       0.03617483463499318 0.07063738549179212

cell_list.1.conv.weight f8 [64, 32, 3, 3]
000000 c2 00 46 ab 8f 68 c2 bf 66 ee ab 71 aa 65 d0 bf
       -0.14381595480882053 -0.2562051878046304
000010 85 63 9e e1 32 b4 d0 bf 99 cc 78 21 54 d4 8b 3f
       -0.2609984591777493 0.013588578483086077
000020 09 8e 23 cb d0 e8 cb bf bd 1e 23 c0 12 c0 a1 3f
       -0.21804246825114174 0.03466852755951553
000030 27 98 b9 22 c2 15 d2 3f d7 dc a1 d5 69 8e d2 3f
       0.28257802382575153 0.28994222509886697
000040 d7 82 83 c8 b7 35 b8 bf b1 9e 87 b1 c5 a6 d0 3f
       -0.09456967015604377 0.260178969735061
000050 b4 0d 68 81 88 d0 ce 3f db 06 fd 3e e5 3b af 3f
       0.24073892897295723 0.06100384134198374
000060 b6 a6 38 67 02 cc cc 3f cf 92 9d f4 f9 1a 88 3f
       0.22497587242223965 0.01177020337827042
000070 29 17 8a ff 8c 66 ad bf 44 03 d7 4d 8b c1 85 3f
       -0.05742302531602512 0.01062306243227485
000080 c1 74 b6 b2 9b 5e c3 bf 20 d1 ce 9f 2b 8b 95 bf
       -0.15132471300322517 -0.021038705471896013
000090 fc 4a 96 ea 27 dd 8b bf fd 4e ec ab 8e 4f af bf
       -0.013605415197877495 -0.06115384911222852
0000a0 23 15 d4 10 04 09 b0 bf eb ab 6a ba 23 a6 c3 bf
       -0.06263757143831987 -0.15350767710091814
0000b0 8a 02 9b a7 ac 07 b1 bf b5 3b 84 29 53 44 a8 bf
       -0.06652335254603706 -0.047396277254044085
0000c0 b2 ff a8 e6 f1 55 ba bf 76 7b 4e 2f 7c 98 9d bf
       -0.10287391549445493 -0.028901996981967902
0000d0 63 57 f5 c2 88 46 a9 bf 35 95 48 f1 ae 50 a5 3f
       -0.04936625842917299 0.041631190255694873
0000e0 c0 96 8a ab 8c d3 b1 bf 4c 50 0d 74 c0 d6 cc bf
       -0.06963423908254196 -0.22530370394327048
0000f0 6b 2c 45 b0 38 91 61 bf 8e bd f7 7e 0e 3f be bf
       -0.0021444422911023795 -0.11814966773794408
000100 03 b2 21 eb e7 ef c3 bf 67 91 5e d9 c5 ab a4 3f
       -0.15575884800945525 0.0403730228274835
000110 08 08 aa 51 a3 24 a8 bf b4 86 9c 52 7b 07 b2 bf
       -0.04715452548863658 -0.07042666212921739
000120 4e 15 b3 2d 3a 37 8a bf 1a 8c 65 19 d8 db bf bf
       -0.012800650138511085 -0.12444830532108178
000130 a1 a4 ff 2d b6 d5 a0 bf a9 1a 48 20 03 c8 68 bf
       -0.03288049041277331 -0.0030250607544560393
000140 08 10 1b 61 5d 75 8e bf 0e 5d a0 5e 2e ea 80 3f
       -0.014872293020182795 0.008259165060776865
000150 6a 94 92 66 3c 3c ba 3f c4 46 63 08 7e d9 8e 3f
       0.10248162750447568 0.015063271170592592
000160 cb ec 29 7f cd 87 75 3f 3e b1 70 20 0c 4a c1 3f
       0.005256464692702421 0.135072246398872
000170 50 35 01 f2 67 a8 bb bf 3e 7a 04 d6 f2 1f 9f 3f
       -0.10803842218702653 0.03039531165370079
000180 08 cd 8d 4f 4b 30 c6 3f c3 f9 02 85 06 8c 96 3f
       0.17334882149189235 0.022018529766450145
000190 bd f0 9d 65 a3 53 c9 bf 73 fe 05 8f 39 4f af 3f
       -0.19786493741765368 0.0611513125504616
0001a0 18 05 0a 8e 1b 9f ad bf 82 7b cb 1f a9 64 ae bf
       -0.05785451992870544 -0.0593617297470166
0001b0 46 26 9d 11 e7 2f 50 3f ce 4e 23 29 0a a7 b6 3f
       0.0009879833728113781 0.08848632339805393
0001c0 42 b0 e0 2d b8 c2 a6 3f 83 95 d7 b7 be 36 c2 bf
       0.04445434150724782 -0.1422956845919253
0001d0 9c 50 ff 26 0c 03 c1 bf 4e 18 0d f5 b3 f4 c2 3f
       -0.1329055014053936 0.14809274163616454
0001e0 a6 c5 9e fa 7e 60 ac bf 30 0e d8 55 5c 72 a7 bf
       -0.05542370614365248 -0.04579437778377515
0001f0 9c ed 93 cf 68 06 b7 3f 29 9f e6 6c b7 62 68 bf
       0.08994154994791476 -0.0029767591979243013
000200 18 a8 fa e7 cf a4 b4 3f 25 12 67 22 c7 c6 5d 3f
       0.08063983357956805 0.0018174118682604626
000210 c4 a9 b2 66 ad e1 6e 3f 81 45 00 14 13 3a c1 3f
       0.0037697207204321088 0.13458479382147107
000220 a4 8b c7 1c 02 77 c7 3f 42 c3 59 76 be c7 a0 bf
       0.18331934361694124 -0.03277392573079975
000230 f1 b1 f0 0a 98 a0 55 bf bf b3 e9 00 ad 68 c3 3f
       -0.0013200268547378625 0.151631951757194
000240 c4 8d f5 8e 01 14 c5 3f 2d 97 ab b8 e8 f3 9d 3f
       0.16467303734235206 0.029250751754168625
000250 a5 f8 26 ac 32 fd c8 3f 39 fd 90 40 45 c0 b3 bf
       0.19522698789473228 -0.07715256525351756
000260 dd 2b 59 c2 00 ea 99 3f 7e 27 cd 54 55 cf c2 3f
       0.025306712972717683 0.1469523109502084
000270 f0 3b 39 b5 1c d7 b1 3f 37 db 1a 13 e1 74 ab 3f
       0.06968860077289185 0.05362609251226618
000280 83 9e f6 2e f2 6b bf 3f fb 1d 5d a8 a7 88 76 3f
       0.1227408756882316 0.0055014180305259465
000290 8c ed 61 b1 2d 95 b6 3f d2 1a c8 87 d4 a0 aa 3f
       0.08821378307941624 0.05200828702441175
0002a0 e0 dd 59 c5 31 1b ad bf 35 d7 b0 a8 31 81 b3 bf
       -0.05684810194082579 -0.07619009369304026
0002b0 25 9f f4 ef 6f 07 b5 bf 51 ce f3 b9 63 c2 bf bf
       -0.0821447335080135 -0.12405989923336704
0002c0 b4 f0 6d 9a 5e 80 ab bf 59 6f c8 0f 47 44 a2 bf
       -0.05371375689625904 -0.03567716663039162
0002d0 95 39 cf 74 21 6f ba bf 74 32 ce 11 dc 26 bb bf
       -0.10325821973603973 -0.10606170115188168
0002e0 7f 03 9b 91 c7 fc b4 3f b6 2c 60 61 ad 15 ac bf
       0.08198211006948773 -0.05485288442295071
0002f0 d3 9b 9b 73 5d d2 c5 bf a9 d8 46 a3 4d f5 83 bf
       -0.17048233170427682 -0.009745222611723685
000300 1b 4d 13 27 9f fd 9e bf c4 33 7e 3f bb ea a1 bf
       -0.030264364967320306 -0.034993983746154395
000310 2a 83 d5 34 7d bd 9d bf 8d df 7b 8f ea 4a a6 bf
       -0.029043156003697813 -0.04354031564247327
000320 1f c4 d3 6f e9 2c bf bf 54 2a a3 7d 9b 11 b4 bf
       -0.12177905063778426 -0.07839366738623116
000330 82 c1 1f c2 bd 67 7e 3f 07 fa d5 cf e2 de ba 3f
       0.007423154109332921 0.10496347021214812
000340 09 b1 c0 69 26 aa 86 bf bf b3 c7 bb b2 f3 ad bf
       -0.011066722967449498 -0.05849989454495796
000350 46 db fd a9 d3 5c a7 3f c4 a0 9a 73 1f a1 ae bf
       0.04563008737652878 -0.05982301984960395
000360 e3 0e 63 76 5f 10 b1 3f 06 54 ef a9 e8 09 b4 3f
       0.06665608063036248 0.07827619694519691
000370 ed 62 60 52 66 4c ad 3f c7 54 63 59 06 1b a6 bf
       0.05722350841114641 -0.0431749328724123
000380 26 17 99 9f 5a 28 a8 bf 94 ac 8e f4 b7 f5 8d bf
       -0.04718287656991853 -0.014628827238843102
000390 0b 31 fd e1 f3 74 a6 bf 28 85 4d b8 e6 d0 6b 3f
       -0.04386102803855082 0.003395510315770029
0003a0 13 61 43 d5 11 bb 90 bf 32 1d ef 60 3b 69 a3 bf
       -0.0163386141219642 -0.0379122310474095
0003b0 1b f7 31 7d 1c ce b0 bf f3 1b 88 5a e9 ad 96 3f
       -0.0656450086262023 0.022147794867148417
0003c0 1c 14 e0 55 6d 05 9c bf db a7 26 44 30 7c ad bf
       -0.027364452711498996 -0.057588108367170064
0003d0 2e e0 2d dc e1 cb b8 3f 76 64 67 3f 92 94 b6 3f
       0.09686099648922727 0.08820451782175262
0003e0 ed 80 98 74 4a 25 b1 3f 57 2d f9 7c 61 9d a9 bf
       0.06697526308608177 -0.05002884531549039
0003f0 0c 82 ca 4e 6e dd ca bf 75 db e9 31 d9 49 c2 bf
       -0.2098825344774159 -0.14287867486174446
000400 ec 48 cd b1 f7 b3 b6 3f d4 96 81 6f c2 56 cb bf
       0.08868358698717643 -0.21358519024504707
000410 db d6 f4 03 43 00 c0 3f ec 61 ff 9d f8 b4 c2 bf
       0.12500798886474382 -0.14614780153966878
000420 23 df f3 af c0 5e c3 3f aa 08 95 2d 6c cc b6 3f
       0.15132912246166894 0.0890567408833102
000430 56 a4 23 4c 73 d7 94 3f 9d 94 da ce 59 64 a2 3f
       0.020353127977532935 0.035921865940772714
000440 e6 4f 7f 09 de 50 a9 3f a6 f0 6a b0 08 2e ad 3f
       0.049445093783702807 0.05699183610474394
000450 7d a8 ea cc 87 83 b3 3f 71 2c 7a 38 0f 9b 77 3f
       0.07622574570510383 0.0057631105952494635
000460 2b 4e b9 df 9d cc c1 3f 20 cd 98 10 90 82 8d bf
       0.139056905975495 -0.014409184938904362
000470 91 33 66 c6 29 a7 af 3f d4 c4 d2 71 39 a6 bb 3f
       0.0618222288786462 0.10800513295068309
000480 d0 74 28 9d fb 97 aa 3f c3 19 38 b9 a1 b8 a1 3f
       0.05194078725274098 0.03461175333000057
000490 06 e6 22 c7 24 5f b2 3f 1e 85 c4 5d c9 00 b7 3f
       0.07176427709318753 0.0898557523655836
0004a0 d5 6d ad c0 40 13 ba 3f b7 2c 20 49 a9 9a ad 3f
       0.10185627655066949 0.05782059686324586
0004b0 b2 fc fa 22 1a 57 b1 3f 30 81 3d 34 9e d9 c4 3f
       0.06773532251371497 0.16289117384713725
0004c0 1e e5 f5 55 45 a3 c4 3f dc 80 51 9f 40 1d b9 3f
       0.1612326307038438 0.09810260667427734
0004d0 08 0e f9 9f 3a 55 c5 3f 35 01 56 80 07 63 c0 3f
       0.1666634827725917 0.1280221344604883
0004e0 0a b6 4b 76 e5 76 a2 3f 6e 09 ec 50 18 c1 a0 3f
       0.036063357057951675 0.032723197820831426
0004f0 40 e4 7f 5e ab b8 c1 3f 89 ea 39 06 2e 68 a1 3f
       0.13844816316830766 0.03399795366290898
000500 0f e7 b0 23 3e b9 a6 3f f6 90 e5 18 d5 3c be 3f
       0.04438203988725153 0.1181157289298119
000510 0e 40 f7 c4 ad 8f b1 3f f8 b5 47 8d 7c 39 b8 3f
       0.06859861429916256 0.09462717484685601
000520 1e 89 6d 2c 20 57 a2 3f c1 2b c5 12 a4 87 b9 3f
       0.03582096617062035 0.09972596605545815
000530 11 50 b0 c5 65 87 b9 3f ec bb f5 c7 c6 ef b6 3f
       0.09972225262055213 0.08959619886239495
000540 62 fe cf 5a ed 4e 88 3f 9a c7 10 bd 0f e4 ac 3f
       0.011869291623951731 0.05642747099808716
000550 29 b2 d4 79 82 38 bb 3f c2 8f 1d e5 41 cd 71 3f
       0.10633101915727451 0.004346139337801648
000560 8c d5 5e 6c 59 61 a1 3f 9c 07 27 e1 2d 61 9a 3f
       0.0339458412922041 0.025761334292617385
000570 b4 48 08 45 fe c1 a2 3f ad e1 24 b1 a9 c4 a8 3f
       0.036636300970842056 0.04837541854289227
000580 64 77 d0 08 da f7 47 bf 34 a2 9e 1a be 65 ae 3f
       -0.0007314505215878339 0.05936998438784649
000590 5d 4a 8c 2d 6f 8d a8 3f 45 8a 4c 05 a1 cf b6 3f
       0.04795405798917749 0.08910566691751239
0005a0 13 67 9a 63 5b 5b b7 3f 11 ee 30 05 a0 17 b5 3f
       0.09123774701802416 0.08239174010025631
0005b0 1d d3 c5 64 ce fe c4 3f 52 67 68 60 50 32 b6 3f
       0.16402606888336715 0.08670523027140334
0005c0 ff 5e 80 b7 3e fc b9 3f e6 c1 54 a0 34 c5 b9 3f
       0.10150520305648668 0.10066536821683023
0005d0 d3 d1 f4 bf a5 59 bf 3f 84 a2 bb aa 0f 46 b5 3f
       0.12246166168626553 0.08310029905590893
0005e0 8e 2d 4b ed 83 93 b8 3f 94 0a 0b 07 ea 8f c3 3f
       0.09600090544988957 0.15282941192534294
0005f0 e2 94 1d 5c 80 79 c8 3f 8e c4 2f 92 fc 23 cb 3f
       0.1912079286368345 0.21203572404877885
000600 00 43 d5 cb d9 00 c5 3f 6e 17 fd c3 ea d4 a7 3f
       0.16408846333299465 0.046546303200144176
000610 9a ce d1 93 36 20 af 3f aa 56 40 6b 0b a7 ba 3f
       0.06079264215887044 0.10411139839592445
000620 c3 c4 8b bb 2e b9 a2 3f d3 34 96 da 5a 3c c1 3f
       0.036569080728335666 0.13465438531094395
000630 9e c4 fe 11 41 05 bf 3f 73 2c fa d0 9e c0 af 3f
       0.12117392243705402 0.06201645184508999
000640 a1 2f 5d 14 67 78 9b 3f 14 65 9d 9f 64 53 a3 3f
       0.02682648717681924 0.037745613559943575
000650 29 30 e0 33 9a d2 a3 3f 3b 0e 26 48 2a d9 95 3f
       0.038716143448340574 0.02133623185501519
000660 75 a0 c8 ab a4 89 a1 3f 6e f8 35 29 40 25 ba 3f
       0.034253259629907364 0.10213089948772033
000670 c6 00 8e 6f 69 c0 b0 3f cf 5d 0b ba f3 dc c4 bf
       0.06543597196105386 -0.1629929216785357
000680 d5 3e ad 73 20 e6 c7 bf ac 60 44 6d 22 76 be bf
       -0.18671041153219528 -0.11899008910802661
000690 1c 87 dc 9d 43 4c c7 bf 2d 9e 6d 05 ce 91 bc bf
       -0.1820148964698597 -0.11159980423473632
0006a0 65 5c a2 f0 98 1b a2 bf 2e 3a 87 1f a3 01 c0 bf
       -0.035366801618857115 -0.12504996337379864
0006b0 bd aa 0a b9 51 f1 c1 bf 8a 7b 4d 2e 26 90 ba bf
       -0.14017697844731983 -0.10376204138218106
0006c0 3a 6c a3 e1 ee a3 b9 3f 0f de c3 d6 76 f4 ba 3f
       0.100157671058171 0.10529272788323162
0006d0 ff 36 13 8f 99 a8 c1 3f 59 fa 3d be 99 ae ca 3f
       0.13795775877081692 0.20845338620343304
0006e0 c5 a7 18 b1 ed 3d c1 3f 47 46 9d 29 53 f2 b1 3f
       0.1347024073341442 0.07010383382773809
0006f0 69 59 87 b6 d3 11 bf 3f 79 5b 8f 0a 8c 6d c1 3f
       0.12136576849238669 0.13615561023354042
000700 f1 84 27 a0 ca 07 c1 3f 32 20 c7 2a 3c 6a b0 3f
       0.13305027790105542 0.06412101787930238
000710 fa b5 ae 57 3f 3b c0 3f fc 65 71 c4 5d 9f 82 3f
       0.12680808812494587 0.009093029553855374
000720 c2 09 71 6c 86 af ac 3f 2c aa 05 97 d9 b9 bb 3f
       0.05602665017842724 0.108304595347058
000730 b5 38 ed 19 93 5c b0 3f f5 be 21 2b fa d4 94 3f
       0.06391257651304978 0.020343693621213316
000740 7d 17 1b 6f 50 b8 b3 3f 3f 33 56 6c 18 1d 7b bf
       0.07703116142792328 -0.006619544413649702
000750 66 d2 a8 6d ba b9 98 3f cf fe 78 31 b6 f0 43 bf
       0.02414599699314337 -0.0006085290542116819
000760 fb 1a f2 d1 6b 7d a2 3f 68 5f a1 ea 4b 04 ae 3f
       0.03611313760580078 0.058626530066873184
000770 62 39 cc 2b 9d 5a a6 3f 47 22 e8 e3 43 b3 a0 bf
       0.0436600795711566 -0.032617684908534054
000780 b2 fc dc e5 81 d6 bc 3f a4 61 f7 61 bf d2 a7 3f
       0.11264812337775501 0.04652975149992081
000790 e2 5e 4e d8 d8 34 a5 3f c5 9b e3 fd 19 83 c1 3f
       0.041418815998609096 0.13681340119293686
0007a0 62 56 1b 3d 99 a6 b9 3f d3 d5 2d 97 59 b1 af 3f
       0.10019834272255815 0.06189994783828081
0007b0 ee a0 30 f7 19 2a b4 3f f0 9c 71 ce 61 73 9c 3f
       0.07876741681014085 0.02778389761479344
0007c0 84 b5 13 63 2e 9a a5 3f 94 e7 d5 d3 15 e9 c2 3f
       0.04219193419872183 0.1477381977418274
0007d0 6b a5 d4 a9 d8 14 b5 3f 77 d2 6f 68 0d 21 b7 3f
       0.08234933992630082 0.09034808921553315
0007e0 18 a8 47 e3 12 a4 c1 3f 78 32 b9 67 fd ca b5 3f
       0.13781963441516676 0.08512862951574529
0007f0 35 7f a3 95 c6 2f ac 3f 05 b7 3c 7f 59 6e c7 3f
       0.05505199982303425 0.1830551024699433

cell_list.1.conv.bias f8 [64]
000000 5d 77 86 82 ef a4 b7 3f 38 05 34 9e 9a 64 b8 bf
       0.09236046730663135 -0.09528509485609937
000010 6e 4b 11 4e 9c ab a4 3f c8 d2 be b0 ae 6b 88 bf
       0.04037178471539603 -0.011924137848703067
000020 8b 7d cc 96 b6 2c b3 3f 96 06 70 7e 25 a2 bf 3f
       0.0749010198746786 0.1235679086385296
000030 a3 04 f1 41 ce a7 b8 bf 30 7f e7 7f c5 87 ac 3f
       -0.09631051168345776 0.055723354209247566
000040 73 47 e6 f1 7d 35 c2 bf 4d c0 e9 13 5f dc a0 3f
       -0.14225744544506433 0.03293130033569067
000050 08 81 71 31 f2 d7 bc 3f 58 93 fd b5 9e b3 a4 3f
       0.112670075484406 0.04043289157451707
000060 a8 13 17 26 59 cb 88 bf be a1 28 10 68 3c b4 bf
       -0.012106605982703147 -0.07904672998905135
000070 1b 64 7a 6c fd 27 c1 bf 8a 47 97 ba be 66 8e bf
       -0.13403289601117838 -0.014844408101371238
000080 fd eb 76 f3 e4 ab b0 bf 02 7a e1 7c 6c 2d c3 bf
       -0.06512289947470147 -0.14982372377103564
000090 c8 e1 49 4b f1 04 b5 bf 60 b6 67 61 83 0f b2 bf
       -0.08210666740513439 -0.07054921272330139
0000a0 b0 df 88 b5 52 e9 b0 bf 38 ea 4b c5 ed e0 b4 bf
       -0.06606022769926656 -0.08155714098749278
0000b0 c6 7e 6d f6 cc 28 c5 bf 6a 1f f1 ff ac 30 be bf
       -0.16530763657191566 -0.11793023346501533
0000c0 f7 8d bc af b0 6a c4 bf 85 c5 3f a2 12 f3 cd bf
       -0.15950592594991495 -0.23398049280471525
0000d0 d5 f6 98 d1 34 82 c0 bf 83 69 c2 da 0e c9 9c 3f
       -0.12897358164075592 0.028110725500121624
0000e0 68 76 2c 7b ab 00 8a 3f 0a 0b 17 49 bc 10 c7 bf
       0.012696590134108024 -0.18019822663162471
0000f0 87 42 6f 25 e0 d9 c8 bf a6 85 a3 d3 ac 4a d2 bf
       -0.19414903476583253 -0.2858078066620585
000100 1a e0 ef 79 77 18 a6 3f d6 e5 24 0e 49 a7 80 3f
       0.04315541614045078 0.008131571525711683
000110 c4 9a 39 6c 4d 57 b7 3f 05 6e 47 36 db d9 7f 3f
       0.09117587940418576 0.007776123330099254
000120 6d be b4 f9 4c 47 95 3f 8c 94 88 74 cc 90 c2 3f
       0.02077980302891407 0.14504390421021573
000130 ba 82 e0 36 d7 ce b9 bf bd 51 f0 ff f0 7f 91 bf
       -0.10081238832254771 -0.01708962022901671
000140 87 e6 2b 61 ec 97 c9 bf ea a0 f7 35 9e b1 bc 3f
       -0.1999488329382084 0.112085235763178
000150 5f 27 26 6e 2a d6 b9 3f 42 d7 06 b2 b4 73 6a 3f
       0.10092415990052704 0.003229000969635105
000160 5d cc 9d 90 82 fe 87 3f de 34 8b 91 7a 24 ad bf
       0.01171590808710315 -0.056918936029981756
000170 0a f7 ea 52 31 90 c0 bf 35 61 a7 5f e4 20 bf 3f
       -0.12940041111681239 0.1215956433801509
000180 7d 0c 5d 92 96 60 9a 3f c4 22 f7 68 92 87 92 3f
       0.025759079631154414 0.018095290810182588
000190 e3 0c 1f 3a 2e 10 9e 3f c9 1c 98 2f 34 1d 85 3f
       0.02935859899276928 0.010309608175715817
0001a0 34 bd 93 66 bc d3 a1 3f 33 be a9 a9 ce 51 ab 3f
       0.034818542024249416 0.05335851498682267
0001b0 bb 6e 16 65 db 5f 54 3f 7c 3d ea 1d e5 08 ad bf
       0.0012435572174131343 -0.056708488370641214
0001c0 ed 8a 19 1b e3 12 b2 3f db 3f 2d d2 c0 c0 8f bf
       0.07060069476714732 -0.01550436631592327
0001d0 23 9d ba ca 67 51 a5 3f 9e c3 f6 b5 d2 4c 9b 3f
       0.04163669919699433 0.0266602443277325
0001e0 f1 0c fe 4a 92 7e a2 3f af f6 89 27 4a f0 90 3f
       0.036121913580268734 0.016541632331146413
0001f0 9b 9b e0 58 cd 53 96 3f 89 ff d3 06 e6 40 7d bf
       0.021804054784435683 -0.007141970197380839
